final_wardi_files/src/quad_newton_raphson/quad_newton_raphson/holybro_ff.pt (torch, 6321 bytes, 4 tensors)

feedfwd_stack.0.weight f4 [64, 13]
0.17479059 -0.09510997 -0.17279847 0.033831984 -0.397823 -0.29082325 -0.3175561 0.24246538
0.16134897 0.06357605 0.18765026 0.0250062 0.044946972 -0.17297508 0.25030681 0.069701575
-0.05122154 -0.04196674 0.14185423 0.14914753 0.21283133 0.49517512 0.16099334 -0.18558699
0.08843828 0.35509524 0.16934165 0.06634727 0.22004265 0.24156119 0.11952963 -0.21940428
-0.50913894 -0.2536022 -0.21174687 0.23812409 -0.28687373 0.10347905 -0.39951384 -0.36946136
0.077677794 -0.052379258 0.027629085 0.15952326 -0.30955258 -0.008425012 0.36412674 -0.15241818
0.14594749 0.22492531 0.30643117 -0.041127555 -0.16515915 -0.32778198 0.1432702 0.04597712
-0.06335159 -0.122863784 -0.011252974 0.1742224 0.025266564 0.09714157 0.06726544 -0.22379866
-0.24792974 0.12921786 -0.15930022 -0.13394909 0.37338302 0.29185745 -0.2057829 0.18189585
-0.37773955 0.104999565 0.11506821 0.017489482 0.013488678 0.2239561 -0.29813918 0.1678327
-0.221585 -0.10696853 0.21011506 -0.24278834 0.4904302 0.14261122 -0.243925 -0.119790316
0.115080364 0.018352017 -0.43536943 -0.35906753 -0.26886585 0.13914694 -0.44545314 0.19227538
0.085024685 -0.25511333 0.31559235 -0.32181194 -0.13694988 -0.15049747 -0.09226248 -0.39973
-0.30903307 0.14945893 -0.11343142 -0.093393534 0.15959768 0.17476934 0.5291523 0.21293013
0.06700029 -0.1216909 0.017166303 -0.07096441 -0.020875856 -0.082566604 -0.1463331 -0.082036436
0.07885735 0.07419381 0.34033585 0.17197993 -0.1757405 0.44456267 0.13229898 0.07386162
0.07387342 0.058456354 -0.17091444 -0.23064978 -0.2981787 -0.18553947 0.08663733 0.037137352
0.05717676 0.13276744 -0.35484114 0.1722588 -0.09188098 0.2682046 -0.07821525 0.089643136
0.15530936 -0.2025781 -0.0356115 -0.34790033 0.0296329 -0.35163978 -0.40007278 0.37264228
-0.17101674 -0.29982132 -0.27166387 -0.062823206 -0.10981935 -0.15504932 0.011761394 -0.07143382
0.21088879 0.37683728 -0.33640575 0.6494739 0.008789448 0.0010407291 -0.18138723 0.22503112
0.06005535 -0.302736 0.34950197 0.13064256 -0.44089454 0.22704263 0.013135568 0.35027307
0.2740265 -0.05469806 -0.123392574 -0.15144318 -0.11984361 0.045687795 -0.13497947 0.05813827
0.084998794 -0.30259994 -0.36523545 0.19826262 -0.5315963 0.18939622 0.3563974 0.074312136
-0.08792799 0.009131169 -0.044780046 -0.121553026 0.269896 0.23234926 -0.06762253 0.1495601
-0.13158645 0.511625 -0.34881234 0.19050446 0.22702488 0.29392743 -0.14074549 0.06900189
-0.17263944 0.14597307 -0.32870692 -0.35078773 0.14956607 0.08098089 0.33138758 0.58755594
0.071509436 -0.07465344 0.30820826 0.2955052 0.105609894 0.23990954 -0.099407695 -0.13752164
0.17027712 0.09200357 0.2118627 0.20595114 -0.40772656 0.110293776 -0.10114392 -0.22940278
-0.034961678 0.41663837 -0.15828204 -0.013880025 -0.12712024 0.08259657 0.19153452 0.23859414
0.39367482 -0.14589046 0.3165759 0.19284216 -0.20450804 -0.26123482 0.13662113 0.30435583
0.008670587 -0.24396193 0.075140014 0.21228288 -0.19305901 -0.04708417 -0.33142683 -0.09310565
00000000: 4efc 323e 04c9 c2bd 15f2 30be 6893 0a3d
00000010: 75af cbbe c9e6 94be b796 a2be d848 783e
00000020: aa38 253e 2934 823d 6427 403e cdd9 cc3c
00000030: 511a 383d 6120 31be 3728 803e b3bf 8e3d
00000040: adcd 51bd 51e5 2bbd 3c42 113e 21ba 183e
00000050: 75f0 593e 9887 fd3e 70db 243e 840a 3ebe
00000060: 211f b53d 0bcf b53e e667 2d3e 14e1 873d
00000070: dc52 613e d15b 773e f3cb f43d 84ab 60be
00000080: ee56 02bf 26d8 81be 2cd4 58be cdd6 733e
00000090: 1de1 92be d3ec d33d 148d ccbe 0a2a bdbe
000000a0: 8915 9f3d a28b 56bd 6456 e23c 115a 233e
000000b0: ad7d 9ebe 1009 0abc d26e ba3e 8313 1cbe
000000c0: 4273 153e d252 663e 8ce4 9c3e 5e75 28bd
000000d0: 7b1f 29be 0ad3 a7be 6cb5 123e 8152 3c3d
000000e0: 7abe 81bd 02a0 fbbd 655e 38bc 5b67 323e
000000f0: d3fb ce3c 29f2 c63d 77c2 893d 7a2b 65be
00000100: 4be1 7dbe b051 043e 991f 23be f329 09be
00000110: 0f2c bf3e 576e 953e c1b8 52be e842 3a3e
00000120: 1467 c1be 030a d73d e2a8 eb3d 1a46 8f3c
00000130: 9eff 5c3c bf54 653e b3a5 98be 56dc 2b3e
00000140: 2ee7 62be 5112 dbbd 6728 573e 829d 78be
00000150: ab19 fb3e ad08 123e 7ac7 79be a054 f5bd
00000160: 41af eb3d f856 963c bee8 debe b3d7 b7be
00000170: c9a8 89be 897c 0e3e 6f12 e4be d6e3 443e
00000180: 6c21 ae3d 379e 82be 5295 a13e 89c4 a4be
00000190: 973c 0cbe 021c 1abe 1cf4 bcbd 69a9 ccbe
000001a0: 9539 9ebe c30b 193e bb4e e8bd 1c45 bfbd
000001b0: 936d 233e bcf6 323e 8676 073f 5b0a 5a3e
000001c0: 7337 893d 1439 f9bd 59a0 8c3c ca55 91bd
000001d0: d803 abbc ae18 a9bd 58d8 15be b802 a8bd
000001e0: f67f a13d edf2 973d 8040 ae3e 821b 303e
000001f0: 51f5 33be b89d e33e 6279 073e c344 973d
00000200: f34a 973d ee6f 6f3d 3204 2fbe 752f 6cbe
00000210: e1aa 98be 0ffe 3dbe ea6e b13d 561d 183d
00000220: 2e32 6a3d 30f4 073e bdad b5be 9c64 303e
00000230: 182c bcbd 1d52 893e 512f a0bd d296 b73d
00000240: 6b09 1f3e a270 4fbe 5ddd 11bd fe1f b2be
00000250: b2c0 f23c 210a b4be 57d6 ccbe f8ca be3e
00000260: 031f 2fbe 2e82 99be 8717 8bbe 74a9 80bd
00000270: f8e8 e0bd 40c5 1ebe ddb2 403c e54b 92bd
00000280: 3bf3 573e d1f0 c03e 603d acbe ec43 263f
00000290: 9e01 103c 1369 883a 93bd 39be 8f6e 663e
000002a0: 99fc 753d 3700 9bbe ecf1 b23e 2ac7 053e
000002b0: eebc e1be dd7d 683e 9136 573c fe56 b33e
000002c0: 344d 8c3e 130b 60bd 3fb5 fcbd ec13 1bbe
000002d0: 9170 f5bd 2023 3b3d 0f38 0abe 6522 6e3d
000002e0: d913 ae3d 61ee 9abe 2400 bbbe 5b05 4b3e
000002f0: b216 08bf 15f1 413e b879 b63e f630 983d
00000300: 9713 b4bd e69a 153c 486b 37bd cbf0 f8bd
00000310: cf2f 8a3e f7ec 6d3e ae7d 8abd 4826 193e
00000320: 99be 06be dbf9 023f 8897 b2be 9a13 433e
00000330: 3679 683e a87d 963e 961f 10be dd50 8d3d
00000340: 65c8 30be f779 153e 464c a8be 739a b3be
00000350: d927 193e 4fd9 a53d a2ab a93e 116a 163f
00000360: 8a73 923d e7e3 98bd 79cd 9d3e 754c 973e
00000370: 004a d83d d9aa 753e 4396 cbbd 79d2 0cbe
00000380: 205d 2e3e 5e6c bc3d 89f2 583e dbe4 523e
00000390: 89c1 d0be b4e1 e13d 8b24 cfbd 90e8 6abe
000003a0: fa33 0fbd a051 d53e b014 22be 0b69 63bc
000003b0: cf2b 02be 6428 a93d a021 443e 0652 743e
000003c0: bf8f c93e 4f64 15be 3d16 a23e 6a78 453e
000003d0: 8e6a 51be 92c0 85be 69e6 0b3e 87d4 9b3e
000003e0: 140f 0e3c 28d1 79be 02e3 993d af60 593e
000003f0: 43b1 45be 55db 40bd c7b0 a9be 2dae bebd

feedfwd_stack.0.bias f4 [64]
-0.3606155 0.32231688 -0.16486275 -0.52074313 -0.30311015 -0.49406913 -0.055553067 -0.069939576
0.35265303 0.37936935 -0.43615282 0.08027146 0.6113865 0.23737653 0.17252058 0.20541345
-0.46224874 0.25729635 0.021591404 -0.28205153 0.36774504 0.05563383 0.33836147 0.65811455
0.17439581 0.147713 0.015293087 -0.52792096 0.08011275 -0.12178549 -0.5493498 0.1543264
0.46728876 -0.059142657 0.4302866 0.36851954 -0.2118487 -0.26758805 -0.51469976 -0.1303906
0.09811422 -0.046184026 0.25649148 -0.22185394 0.12166684 0.30325988 0.47227758 0.21917848
0.54663867 0.817182 -0.45607442 -0.12329846 -0.417419 0.1725341 -0.14959721 0.3463244
-0.04342718 0.46607485 0.11979745 -0.002373093 0.5873595 0.07246663 -0.109838925 0.31369802
00000000: 98a2 b8be b806 a53e c8d1 28be 6c4f 05bf
00000010: 4131 9bbe a1f6 fcbe 9d8b 63bd 7b3c 8fbd
00000020: f08e b43e b33c c23e 6c4f dfbe 5d65 a43d
00000030: d383 1c3f d512 733e 3ca9 303e e757 523e
00000040: deab ecbe 59bc 833e 75e0 b03c 0f69 90be
00000050: 1449 bc3e 4de0 633d b73d ad3e 327a 283f
00000060: d194 323e 1442 173e db8f 7a3c d425 07bf
00000070: 2712 a43d ac6a f9bd 30a2 0cbf bd07 1e3e
00000080: 7940 ef3e 923f 72bd 864e dc3e 98ae bc3e
00000090: deee 58be 4d01 89be 5dc3 03bf 1d85 05be
000000a0: 1cf0 c83d 762b 3dbd da52 833e ae2d 63be
000000b0: 772c f93d e144 9b3e 5ece f13e 5370 603e
000000c0: 83f0 0b3f d732 513f 9682 e9be e783 fcbd
000000d0: f1b7 d5be c7ac 303e 0330 19be 6f51 b13e
000000e0: b3e0 31bd 5da1 ee3e 5e58 f53d e585 1bbb
000000f0: 315d 163f 6269 943d 3bf3 e0bd 079d a03e

feedfwd_stack.1.weight f4 [4, 64]
-0.011001657 -0.09041003 0.12305077 -0.099933 -0.036030978 0.08585964 -0.12727337 -0.09724119
-0.15343831 0.03635784 -0.09478869 0.088935226 -0.18414402 -0.11833291 -0.11742414 0.037197594
-0.1181646 0.05252875 0.016775 0.15375158 0.052178252 -0.07864679 0.011107612 -0.119637415
0.01368857 0.08813226 0.054684926 -0.04212273 -0.1263877 -0.027032917 -0.10162332 -0.16428892
0.059939004 0.002616586 0.18891758 -0.023087913 -0.02264292 -0.12726083 0.0066209827 0.05914888
0.0855162 0.11350254 -0.06445407 0.046364382 -0.08537264 -0.007768133 -0.1933969 0.070415
0.04862794 0.15005408 -0.062376305 0.0024327221 0.032783166 0.121036254 0.09952017 -0.12520817
-0.1586189 -0.13547392 -0.05613433 0.07723048 0.03198466 0.027106714 0.01198953 0.04076385
-0.10472947 0.041702878 -0.08195771 -0.039209284 -0.0391806 0.029210377 0.093911454 -0.049058493
0.11089797 0.06882771 0.0049895043 -0.039674163 -0.0463179 0.10225921 -0.07690465 0.12576096
0.07176116 0.019484887 0.030134989 0.0019691796 -0.10706032 0.023046777 0.20054446 -0.17962722
-0.13593155 0.042257365 0.102163 -0.07768885 0.15556394 -0.039303996 0.077472076 -0.051611602
-0.072036065 0.12087944 0.17220843 -0.02719283 0.13473876 0.089312024 0.07491805 -0.02320647
-0.07641691 -0.062819555 -0.13129632 0.03749179 -0.08680959 0.015281736 -0.13354541 0.10187083
-0.053027444 0.09318947 -0.17847577 0.16332133 0.088323615 -0.17203362 -0.078256965 -0.01591268
0.09664371 -0.01036733 -0.124073714 -0.048360378 0.17526083 -0.01651791 -0.041920263 0.037724674
-0.12290771 0.036621183 -0.08583941 -0.14570895 -0.13156804 -0.15436047 -0.018784927 0.09280253
0.031522654 0.07839433 -0.13799636 -0.036759693 0.34979138 0.0087027745 0.00024544046 0.05831765
-0.1007807 0.037578914 0.015860029 -0.11456099 0.10555627 0.11688572 0.33164543 0.13032044
0.004125597 0.08410299 -0.06719355 -0.32531115 -0.026269756 -0.10458168 -0.111326784 0.06205846
0.089249775 0.0266978 0.15024559 0.08776013 -0.035787955 -0.10301164 -0.15007044 -0.025193747
0.08011937 0.002299518 0.08268969 -0.10093702 0.103216566 0.10281817 0.22874042 0.059165265
0.11401962 0.3592578 -0.2763445 -0.0355469 -0.085324205 0.084710255 -0.02249234 0.18228854
-0.0057099103 0.14046343 0.020046888 0.032875866 0.29881254 -0.0021471868 -0.07971598 0.100952014
0.025265288 0.050923165 -0.08103399 -0.064220674 0.0039311047 0.087696716 -0.102426454 -0.107474215
-0.02160008 0.09183097 -0.056553848 0.11532081 -0.09158059 -0.08974289 0.038840577 0.111119956
0.07549855 0.12118904 0.049258508 0.04172933 -0.025606442 -0.091427356 0.13231519 0.08348943
0.046720132 -0.00029523642 -0.06311334 0.2098369 -0.055327285 0.18533999 -0.059150387 0.08622413
0.04129641 0.06194915 -0.09030103 -0.02882184 -0.10244286 -0.049363818 0.09875174 -0.043253843
-0.011585186 -0.0926579 -0.05797379 0.05795495 0.004213737 0.08919818 0.055402737 0.029654197
0.011870931 -0.052999184 -0.1051518 0.036737017 -0.07688013 -0.10297379 0.11091611 -0.15390413
-0.05901961 0.09099479 -0.033224992 -0.10493791 -0.025022734 -0.04905079 -0.057091653 -0.026835676
00000000: 4b40 34bc e528 b9bd 0b02 fc3d aca9 ccbd
00000010: 3895 13bd 2ed7 af3d f353 02be 6426 c7bd
00000020: ef1e 1dbe f5eb 143d 9320 c2bd ac23 b63d
00000030: 4090 3cbe 8658 f2bd 117c f0bd 815c 183d
00000040: 4800 f2bd 6328 573d ba6b 893c 0e71 1d3e
00000050: ddb8 553d 9111 a1bd b4fc 353c 7604 f5bd
00000060: 0646 603c b07e b43d 4dfd 5f3d e288 2cbd
00000070: c76b 01be 2374 ddbc e31f d0bd 5b3b 28be
00000080: 9a82 753d 077b 2b3b 9c73 413e dd22 bdbc
00000090: a57d b9bc aa50 02be d4f4 d83b 1946 723d
000000a0: 1e23 af3d 0574 e83d 7f00 84bd 94e8 3d3d
000000b0: dad7 aebd d38b febb d609 46be bd35 903d
000000c0: 172e 473d c7a7 193e 4c7e 7fbd 4e6e 1f3b
000000d0: a447 063d dbe1 f73d 3bd1 cb3d 9236 00be
000000e0: fe6c 22be adb9 0abe 1ced 65bd 042b 9e3d
000000f0: 5902 033d e60e de3c bc6f 443c fff7 263d
00000100: 687c d6bd a3d0 2a3d 72d9 a7bd ea99 20bd
00000110: d67b 20bd 9a4a ef3c a654 c03d 8ff1 48bd
00000120: 7a1e e33d 8bf5 8c3d ff7e a33b 6081 22bd
00000130: d7b7 3dbd 476d d13d 2f80 9dbd 7bc7 003e
00000140: 84f7 923d c59e 9f3c a7dd f63c 5a0d 013b
00000150: 7142 dbbd 98cc bc3c 875b 4d3e 33f0 37be
00000160: a431 0bbe 0f16 2d3d d63a d13d 551b 9fbd
00000170: 274c 1f3e 3afd 20bd aea9 9e3d b066 53bd
00000180: a587 93bd a48f f73d 6857 303e 7fc3 debc
00000190: f5f8 093e 39e9 b63d a26e 993d 7f1b bebc
000001a0: 7880 9cbd 8aa7 80bd 8b72 06be fe90 193d
000001b0: 3ac9 b1bd 3f60 7a3c 21c0 08be a7a1 d03d
000001c0: 4e33 59bd 1fda be3d 5ac2 36be b53d 273e
000001d0: 03e3 b43d 9529 30be 3045 a0bd 4f5b 82bc
000001e0: 23ed c53d bcdb 29bc 5c1a febd 8815 46bd
000001f0: 9377 333e 9150 87bc 95b4 2bbd 3085 1a3d
00000200: 0ab7 fbbd 1800 163d 93cc afbd ba34 15be
00000210: c6b9 06be ac10 1ebe d9e2 99bc 410f be3d
00000220: e61d 013d 358d a03d eb4e 0dbe 5591 16bd
00000230: db17 b33e 1596 0e3c 76ae 8039 7dde 6e3d
00000240: 1d66 cebd 59ec 193d e4ec 813c f49e eabd
00000250: e32d d83d c861 ef3d 6ecd a93e b972 053e
00000260: 0430 873b 303e ac3d c69c 89bd 2f8f a6be
00000270: ac33 d7bc eb2e d6bd 4cff e3bd 0331 7e3d
00000280: 96c8 b63d 58b5 da3c fbd9 193e 95bb b33d
00000290: 6496 12bd c4f7 d2bd 11ac 19be 1e63 cebc
000002a0: a015 a43d 83b3 163b 3659 a93d 11b8 cebd
000002b0: 3563 d33d 5592 d23d ee3a 6a3e 4757 723d
000002c0: 1e83 e93d a3f0 b73e 077d 8dbe a099 11bd
000002d0: 75be aebd 927c ad3d db41 b8bc d9a9 3a3e
000002e0: 331a bbbb a5d5 0f3e 5f39 a43c d8a8 063d
000002f0: f5fd 983e d1b7 0cbb 2242 a3bd eebf ce3d
00000300: 26f9 ce3c cf94 503d 26f5 a5bd 2186 83bd
00000310: 7fd0 803b 569a b33d f6c4 d1bd 711b dcbd
00000320: a7f2 b0bc e011 bc3d 02a5 67bd 512d ec3d
00000330: 9b8e bbbd 1fcb b7bd 4c17 1f3d dc92 e33d
00000340: fc9e 9a3d f631 f83d 4ac3 493d 60ec 2a3d
00000350: 9ac4 d1bc 443e bbbd a27d 073e 82fc aa3d
00000360: 9c5d 3f3d f6c9 9ab9 9141 81bd 7cdf 563e
00000370: dd9e 62bd c4c9 3d3e ad47 72bd 4796 b03d
00000380: 6d26 293d 64be 7d3d bfef b8bd c81b ecbc
00000390: 90cd d1bd b731 4abd 5a3e ca3d f12a 31bd
000003a0: cbcf 3dbc 6dc3 bdbd ed75 6dbd 2b62 6d3d
000003b0: 6313 8a3b 89ad b63d fbed 623d 5ced f23c
000003c0: 4b7e 423c ac15 59bd d459 d7bd 8e79 163d
000003d0: 5473 9dbd ece3 d2bd fc27 e33d 0b99 1dbe
000003e0: 8cbe 71bd 7a5b ba3d ee16 08bd b0e9 d6bd
000003f0: 7afc ccbc 7be9 48bd f0d8 69bd 7ed6 dbbc

feedfwd_stack.1.bias f4 [4]
0.020824607 -0.010617341 0.2097649 0.01448017
00000000: 5e98 aa3c 5bf4 2dbc 9ccc 563e 3c3e 6d3c
