final_wardi_files/src/quad_newton_raphson/quad_newton_raphson/sim_ff.pt (torch, 6105 bytes, 4 tensors)

feedfwd_stack.0.weight f4 [64, 13]
0	0x3e917022	0.28405863
1	0xbe5f341c	-0.21797222
2	0xbe92ffa7	-0.28710672
3	0x3e21ffc0	0.15820217
4	0xbdb16535	-0.08661882
5	0xbe17c238	-0.14820182
6	0xbeae31b8	-0.34022307
7	0xbf3e5f7c	-0.7436445
8	0xbd4bd615	-0.04976471
9	0x3c82b4da	0.015955377
10	0xbe68e20d	-0.22742482
11	0xbe836a78	-0.25667167
12	0xbe31d6e5	-0.17367132
13	0x3eb71eb6	0.35765618
14	0x3d983f4e	0.074339494
15	0xbc946d44	-0.018118508
16	0x3d750e66	0.059828185
17	0xbba635a1	-0.005072311
18	0xbce3082c	-0.027713858
19	0x3cf2fafd	0.029660696
20	0xbf418fe3	-0.7561018
21	0x3e1d3bac	0.15354794
22	0xbab67bca	-0.001392239
23	0xbe1fbfb7	-0.15600477
24	0xbd599921	-0.05312455
25	0x3d391348	0.045184404
26	0x3e034a45	0.128213
27	0x3da48afe	0.08034323
28	0xbbbc851d	-0.005753173
29	0x3cf829f5	0.030293444
30	0x3d746e20	0.059675336
31	0x3e74a9d9	0.23892917
32	0xbeddf890	-0.433537
33	0xbf0e7f23	-0.55662745
34	0xbe8962ee	-0.2683329
35	0xbe099f7b	-0.13439743
36	0xbe93da5a	-0.28877527
37	0xbe0508f9	-0.12991704
38	0x3d6c441e	0.05768215
39	0x3e6bcc57	0.23027168
40	0x3e452f8c	0.19256419
41	0x3e394ce0	0.18095732
42	0x3e8d2c5b	0.27572903
43	0x3e8e768d	0.27824822
44	0x3ea205ba	0.31644994
45	0x3e83d37e	0.25747293
46	0xbe079e5a	-0.13244
47	0xbd22483a	-0.039619662
48	0xbe09d8af	-0.13461564
49	0xbd280e57	-0.0410293
50	0xbde7295b	-0.11287185
51	0xbdabf86f	-0.08396994
52	0x3e8960c6	0.26831645
53	0xbc3f5f50	-0.011680439
54	0xbe07c2dc	-0.13257927
55	0x3eaa6099	0.33276823
56	0xbc026d41	-0.0079606185
57	0xbd400838	-0.046882838
58	0xbef9612f	-0.48706958
59	0xbebac7f8	-0.3648069
60	0x3e91d804	0.2848512
61	0xbe0b1c04	-0.13584906
62	0x3d9d71d1	0.076877244
63	0x3d69b1c0	0.05705428
64	0x3ec380d1	0.38184217
65	0xbe4a7d8f	-0.1977446
66	0x3d006537	0.031346526
67	0xbc89e8f6	-0.016834717
68	0x3de63095	0.11239735
69	0xbb6c4d63	-0.0036056868
70	0xbd74f334	-0.05980225
71	0xbf2a6735	-0.6656373
72	0x3ef0ad19	0.47007063
73	0xbe919c66	-0.28439635
74	0xbe11910d	-0.14215489
75	0x3e158ad5	0.14603741
76	0xbd6bea19	-0.0575963
77	0x3df86241	0.121281154
78	0x3e1a7a05	0.1508561
79	0x3e68afa3	0.2272325
80	0xbed7c15b	-0.42139706
81	0x3d515e5a	0.05111537
82	0x3e2d62db	0.16932242
83	0xbe8adca3	-0.27121457
84	0x3eb69537	0.35660717
85	0x3ea51f36	0.32250375
86	0x3d73de1d	0.059537996
87	0xbe447e87	-0.19188891
88	0xbd5ce798	-0.053931803
89	0xbe494478	-0.19655025
90	0x3d4968c4	0.049172178
91	0x3e1e5e7f	0.15465735
92	0xbe9854e9	-0.2975228
93	0xbd8812a6	-0.06644182
94	0xbe6d483e	-0.2317209
95	0xbe88a255	-0.2668635
96	0xbe0caf1b	-0.13738672
97	0xbeb52e7f	-0.35387036
98	0x3e9844ba	0.29739934
99	0xbeb84a7a	-0.3599432
100	0xbe21e170	-0.15808654
101	0xbd6c842b	-0.057743233
102	0x3c599103	0.013279202
103	0xbecad0b9	-0.39612368
104	0xbdc33af5	-0.095327295
105	0xbec00d97	-0.37510368
106	0xbe6e7115	-0.23285325
107	0x3eb78fbe	0.35851854
108	0xbee7bb12	-0.4525991
109	0x3dddd432	0.10831489
110	0xbf34684f	-0.7047166
111	0xbea03e79	-0.31297663
112	0x3cddd9c7	0.027081383
113	0xbce00a7c	-0.02734875
114	0xbeb534dc	-0.3539189
115	0xbdf7449e	-0.120736346
116	0xbdce5c91	-0.100762494
117	0x3d3cb911	0.04607493
118	0x3d9c6c0e	0.07637797
119	0x3d870876	0.06593411
120	0x3e011ab8	0.12607849
121	0xbd2c51c1	-0.042070154
122	0xbe9333dc	-0.28750503
123	0x3ef2b8ef	0.47406718
124	0xbc671301	-0.014103652
125	0x3e3a9f1f	0.18224762
126	0x3e5c23b0	0.21497989
127	0x3d3bf832	0.045890994
128	0xbd233caf	-0.039852794
129	0x3e5387a8	0.20657218
130	0xbde418b4	-0.11137524
131	0x3da8b8bf	0.082383625
132	0x3d479083	0.0487218
133	0xbe6e44dd	-0.23268457
134	0xbe2ac4d2	-0.16676643
135	0x3b9a9a32	0.0047180885
136	0xbe712d5d	-0.23552461
137	0x3ee18683	0.44047937
138	0x3ca12b9c	0.019674115
139	0xbe623139	-0.2208909
140	0xbd234844	-0.03986384
141	0xbdb2898f	-0.087176435
142	0xbe1f3f21	-0.15551426
143	0xbec1ae40	-0.37828255
144	0x3c4bf81a	0.012449289
145	0x3e1bf8d6	0.15231642
146	0xbe3a556a	-0.18196645
147	0x3e235d16	0.15953478
148	0x3cb45e8d	0.022017742
149	0xbce56ed3	-0.028006947
150	0x3ee66ea5	0.4500629
151	0xbe4d2e2b	-0.20037143
152	0x3da5fc29	0.08104736
153	0xbe6d3d03	-0.23167805
154	0x3ed480cc	0.41504514
155	0xbd74e9d6	-0.059793316
156	0x3dfdb53d	0.12388084
157	0x3de190f4	0.11013976
158	0x3e6d94db	0.23201315
159	0x3d9eac0f	0.07747661
160	0xbea917f5	-0.3302609
161	0x3de0b4ba	0.10971971
162	0xbeb20098	-0.34766078
163	0xbf17a561	-0.59236723
164	0xbe9f35d2	-0.3109575
165	0x3db36df4	0.08761206
166	0xbeadf87c	-0.3397864
167	0xbebf365a	-0.37346154
168	0x3d08f46d	0.033436228
169	0x3df163b8	0.11786598
170	0x3beadf0d	0.007167703
171	0xbcbe53b9	-0.023233281
172	0xbe82e4d9	-0.25565222
173	0xbea10efc	-0.31456745
174	0x3e77430e	0.24146673
175	0xbed699db	-0.41914257
176	0x3e7f3b89	0.24925055
177	0xbea2a6f3	-0.31767997
178	0x3e817558	0.2528484
179	0xbd90d11b	-0.07071134
180	0xbe3a93ed	-0.18220492
181	0xbe7244af	-0.23659013
182	0xbe51bcba	-0.2048215
183	0xbe8ee563	-0.27909383
184	0xbe4b5feb	-0.19860809
185	0xbda0dff3	-0.07855215
186	0x3d3e22eb	0.04642002
187	0x3e581a66	0.2110382
188	0xbe9ff3f2	-0.31240803
189	0x3ecde7de	0.40215963
190	0xbe108a1e	-0.14115188
191	0x3e0b9c5d	0.13633867
192	0xbe80947d	-0.25113288
193	0x3dfaf68a	0.12254055
194	0xbde17dd4	-0.11010328
195	0xbeaf558b	-0.34244952
196	0xbd20824b	-0.039186757
197	0xbe00a37d	-0.12562366
198	0xbdd6da8d	-0.10490904
199	0x3dcb0d9a	0.09914704
200	0xbe158b2b	-0.1460387
201	0x3e62571b	0.2210354
202	0x3f0c82db	0.5488717
203	0x3ea499b9	0.3214853
204	0x3d3c5804	0.045982376
205	0xbd7d3ab5	-0.061823566
206	0x3de3363f	0.11094331
207	0x3e6fa474	0.23402578
208	0xbec6cca4	-0.38828003
209	0x3e986ce5	0.2977058
210	0x3ddeadbe	0.108729824
211	0xbdcddbdd	-0.10051701
212	0x3e7224c8	0.23646843
213	0x3e6c75b6	0.23091778
214	0x3efa58a5	0.48895755
215	0x3f2fccca	0.6867186
216	0xbe6f1b36	-0.23350224
217	0xbd6dff02	-0.058104523
218	0xbe6a67a5	-0.228911
219	0x3e734102	0.23755267
220	0x3e0ec0d3	0.13940744
221	0xbd87a629	-0.066234894
222	0xbda0d196	-0.07852475
223	0x3e52b4c6	0.20576772
224	0x3d44bc3a	0.04803107
225	0xbea3130c	-0.3185047
226	0xbdcb0045	-0.09912161
227	0x3b5753f0	0.0032856427
228	0x3d9a5dd0	0.075374246
229	0xbc7bb09f	-0.015361934
230	0x3c18cc10	0.009325996
231	0x3df5a8bd	0.11995075
232	0xbe18db4e	-0.14927408
233	0x3c8ac975	0.016941765
234	0x3df775b2	0.120829955
235	0xbd8a2d5b	-0.06746932
236	0xbddb8176	-0.10718052
237	0xbe3072f4	-0.17231351
238	0x3ed3200f	0.41235396
239	0xbdccb1fd	-0.09994886
240	0x3f0f0e16	0.5588087
241	0xbea94990	-0.33063936
242	0xbd222534	-0.03958626
243	0x3e3bf59a	0.18355408
244	0x3ea6d798	0.3258636
245	0xbe415ba4	-0.18882614
246	0xbcaa1ab6	-0.02076469
247	0x3e0df261	0.13861991
248	0xbeaddba5	-0.33956638
249	0x3d9aa7e1	0.075515516
250	0x3d16d673	0.03682561
251	0xbea99334	-0.3312012
252	0xbe5fd9db	-0.21860449
253	0xbf163288	-0.58670855
254	0x3df9d174	0.12198153
255	0xbe02cfe9	-0.12774624

feedfwd_stack.0.bias f4 [64]
0	0xbef4a88f	-0.4778485
1	0xbe96fc56	-0.29489392
2	0xbde61d31	-0.112360366
3	0x3f08a0b9	0.53370243
4	0x3cc5016e	0.024048533
5	0x3e341303	0.17585377
6	0x3c812bb6	0.015767913
7	0x3e501250	0.20319486
8	0xbd6643b0	-0.056216896
9	0xbe506d96	-0.20354304
10	0x3ec94ba8	0.39315534
11	0x3be11646	0.0068691103
12	0xbe0a7f94	-0.1352523
13	0xbe54cd18	-0.20781362
14	0xbd855ffb	-0.065124474
15	0xbeb5a247	-0.3547537
16	0x3ef9dd93	0.4880186
17	0x3f0ee371	0.558158
18	0xbe31e447	-0.17372237
19	0x3db5ab44	0.08870557
20	0x3eebfb68	0.46090245
21	0x3d8aa7a2	0.06770255
22	0xbe7205b6	-0.23634991
23	0x3e748520	0.23878908
24	0x3e9278b1	0.28607705
25	0xbec8e630	-0.3923812
26	0xbf1133b4	-0.5671952
27	0x3ebe730a	0.37197143
28	0xbe05ed99	-0.13078918
29	0x3ecf4ff7	0.40490696
30	0xbd808473	-0.06275263
31	0xbe2b27b9	-0.16714372
32	0x3dd9c024	0.10632351
33	0xbec37629	-0.38176087
34	0xbe91f77d	-0.2850913
35	0x3dc31984	0.09526351
36	0x3ed707d6	0.41998166
37	0xbe82cf12	-0.25548607
38	0x3e755248	0.23957169
39	0x3d6d3fbd	0.057922114
40	0xbe26b84a	-0.16281238
41	0xbed30ff0	-0.41223097
42	0xbde3ae44	-0.11117223
43	0x3ea54caf	0.32285067
44	0xbe26bdbf	-0.1628332
45	0xbd3326a1	-0.04373801
46	0x3d858194	0.06518856
47	0x3cdac268	0.026704028
48	0xbe21824d	-0.15772362
49	0xbe8b940b	-0.27261385
50	0x3e908751	0.28228238
51	0x3e9b0e08	0.30284142
52	0x3e88173f	0.26580235
53	0x3eb956bb	0.36198983
54	0xbe0b32ef	-0.13593648
55	0xbe45be68	-0.19310915
56	0xbd3e2f8c	-0.046432063
57	0x3e62c81d	0.2214665
58	0xbeace6f4	-0.33769953
59	0xbee47095	-0.44617143
60	0x3e41f208	0.18939984
61	0xbc23f6c9	-0.010007569
62	0x3e21e285	0.15809067
63	0xbf03da1c	-0.51504683

feedfwd_stack.1.weight f4 [4, 64]
0	0x3de3930f	0.111120336
1	0x3e59b713	0.21261244
2	0x3d9ddeb9	0.077084966
3	0x3d942cc7	0.07235103
4	0x3db72207	0.08942037
5	0xbd3a7f2b	-0.045531433
6	0xbc9e7179	-0.019341217
7	0xbd1d3821	-0.038383607
8	0x3cbe303f	0.023216365
9	0x3cd32d09	0.02577831
10	0xbe039c9a	-0.12852708
11	0xbe031bdb	-0.12803595
12	0x3d2ecf87	0.042678382
13	0xbd1e9e0e	-0.03872495
14	0xbdb9a8f0	-0.090654254
15	0xbdb06862	-0.086136594
16	0xbe52e9e3	-0.20597033
17	0xbd0d14b0	-0.034443557
18	0x3d8bc4ce	0.06824647
19	0xbcc874da	-0.024469782
20	0x3c0e6730	0.008691594
21	0x3c9d731e	0.019219931
22	0xbdad8dab	-0.08474287
23	0x3d8ff8b2	0.07029857
24	0xbd2c574d	-0.042075444
25	0xbd8f4984	-0.06996444
26	0xbda812be	-0.082067
27	0x3d8ef14b	0.06979617
28	0xbdfce80f	-0.12348949
29	0xbb0c4e88	-0.0021409113
30	0x3d8900ed	0.0668963
31	0xbd5bce82	-0.053663738
32	0xbd513372	-0.051074453
33	0x3d8ca165	0.06866721
34	0x3dab8261	0.08374477
35	0x3e53d7f8	0.20687854
36	0x3deca8c6	0.115556285
37	0x3e02f7b3	0.12789802
38	0xbde63a12	-0.11241545
39	0x3d6e0c15	0.05811699
40	0x3e1dd05b	0.15411513
41	0xbc275486	-0.010213023
42	0xbddf543d	-0.10904739
43	0x3d7615bf	0.060079332
44	0xbe50f577	-0.20406137
45	0x3dd82ca3	0.10555389
46	0x3ce50b89	0.027959602
47	0x3cd397ad	0.02582916
48	0x3d923b71	0.07140244
49	0x3d854af2	0.06508435
50	0x3da0d46f	0.078530185
51	0x3e1c1316	0.15241656
52	0x3c28d612	0.010304945
53	0xbd14ae3f	-0.036298987
54	0xbd934c67	-0.07192307
55	0xbdd3e756	-0.10346858
56	0x3de711e2	0.11282708
57	0xbd1c0706	-0.038092636
58	0xbe584e6d	-0.21123667
59	0xbda4ea68	-0.08052522
60	0x3d8e7399	0.06955642
61	0x3ce5c1c6	0.0280465
62	0xbda85d3f	-0.0822091
63	0x3e050b43	0.12992577
64	0xbcdd0d00	-0.026983738
65	0x3d6f6351	0.058444325
66	0xbda89fa7	-0.08233576
67	0x3db585a6	0.08863382
68	0xbda98497	-0.08277243
69	0xbd91ccd6	-0.071191475
70	0x3cf759a7	0.030194117
71	0xbd17fed7	-0.03710827
72	0xbe1ae506	-0.15126428
73	0x3db15961	0.08659626
74	0xbd22cdbf	-0.039746996
75	0xbc80f9f1	-0.015744181
76	0xbd0ce08b	-0.03439383
77	0xbdddf4d7	-0.10837715
78	0xbdcc9ac2	-0.09990455
79	0x3ca994de	0.020700868
80	0x3d895e8b	0.06707486
81	0xbd1d4ce2	-0.0384034
82	0x3dacfb0b	0.0844632
83	0xbd543306	-0.051806472
84	0x3e0c0c6c	0.13676614
85	0xbc0396eb	-0.008031587
86	0xbd55c9d6	-0.05219444
87	0xbcb870a1	-0.022514643
88	0xbd8dff44	-0.06933454
89	0xbdab9e01	-0.08379746
90	0xbd93d6a7	-0.07218676
91	0xbd8ded55	-0.06930033
92	0xbd898e39	-0.0671658
93	0x3de523f9	0.11188502
94	0x3e046427	0.1292883
95	0xbd7bf163	-0.0615095
96	0x3dadcc1a	0.08486195
97	0x3c0b5ea7	0.008506454
98	0xbd479afd	-0.048731793
99	0xbe42fec2	-0.19042495
100	0x3db15047	0.0865789
101	0x3dbb8b9c	0.09157488
102	0xbdbb3d95	-0.09142605
103	0x3da89745	0.082319774
104	0x3d8c918f	0.068637006
105	0x3d41d441	0.04732156
106	0x3d7eb921	0.06218827
107	0x3c349b17	0.011023304
108	0x3dce991f	0.10087799
109	0x3ddd3999	0.108020015
110	0xbcd7cc83	-0.026342636
111	0xbdd1f315	-0.10251442
112	0xbd733c1e	-0.059383504
113	0x3dc00d70	0.09377563
114	0x3a67e286	0.00088457053
115	0xbe3ae34d	-0.18250771
116	0xbdcb2bd0	-0.09920466
117	0xbe5179b2	-0.2045658
118	0x3d9bbb25	0.07604054
119	0xbd9a8699	-0.07545204
120	0xbe206411	-0.15663172
121	0xbb2f5f2d	-0.002675961
122	0xbe70b17f	-0.2350521
123	0x3d17b1b6	0.037034713
124	0xbd2f97a7	-0.042869236
125	0x3ddba82e	0.10725437
126	0x3d9f10f9	0.07766909
127	0xbe272b96	-0.1632522
128	0xbe69bd96	-0.22826228
129	0xbe0ee7be	-0.1395559
130	0x3cbee097	0.023300452
131	0x3e66cfe2	0.22540238
132	0x3d521047	0.051285055
133	0xbd483b8c	-0.048884913
134	0xbdbdce8e	-0.09267913
135	0x3e021a9f	0.12705468
136	0xbd83443e	-0.064095005
137	0xbdc9b929	-0.098497696
138	0x3e17fca9	0.14842476
139	0x3dba86aa	0.091077164
140	0xbcc38163	-0.023865407
141	0x3b554176	0.0032540238
142	0x3d161853	0.03664429
143	0xbe6a25f0	-0.22866035
144	0x3e6c3029	0.23065247
145	0x3ec88880	0.3916664
146	0x3ba49f28	0.0050238557
147	0x3ae8aacb	0.0017751096
148	0x3e9d4822	0.30719095
149	0x3cf21c24	0.029554434
150	0xbd6c34cf	-0.05766755
151	0x3daeaa72	0.085286036
152	0x3dad6e8e	0.08468352
153	0xbe8f7b52	-0.28023773
154	0xbe3e537e	-0.18586537
155	0x3e8f2a50	0.2796197
156	0x3d914a75	0.0709428
157	0x3e151687	0.14559375
158	0xbe062404	-0.13099676
159	0xbdf30cce	-0.11867677
160	0x3d5e7fe1	0.054321174
161	0xbe17feaf	-0.14843248
162	0xbe3e2d56	-0.18571982
163	0x3e22e64a	0.15908161
164	0x3e098b66	0.13432083
165	0xbdd5f1c9	-0.104465075
166	0x3d881990	0.06645501
167	0xbd9c09b4	-0.07619038
168	0xbcbf564b	-0.023356577
169	0xbea53582	-0.32267386
170	0xbdc8473d	-0.097792126
171	0x3df9a4a4	0.12189606
172	0xbe17e922	-0.14835027
173	0xbd7baae3	-0.061442267
174	0x3d44a71e	0.048010938
175	0xbd98c5e6	-0.07459621
176	0xbe04e244	-0.12976938
177	0xbe2b0826	-0.16702327
178	0x3de25082	0.11050512
179	0x3e414850	0.18875241
180	0x3e83741d	0.25674525
181	0x3eb79cf8	0.35861945
182	0xbd3172c4	-0.04332234
183	0xbd511e8e	-0.05105453
184	0x3c5fe7e4	0.013666127
185	0x3db64a6a	0.08900912
186	0xbe20099a	-0.15628663
187	0xbe4dddf9	-0.20104207
188	0x3e2b5e4a	0.16735187
189	0x3c5c7896	0.013456484
190	0x3e033ee1	0.12816955
191	0xbe7d2e3f	-0.24724673
192	0xbd117a24	-0.035516873
193	0x3cec5633	0.028849697
194	0xbd1dd6c0	-0.03853488
195	0xb9c73856	-0.0003799821
196	0x3d5cbb79	0.053889725
197	0xbd504c6e	-0.05085414
198	0x3d4502ee	0.048098497
199	0xbd4f2ecf	-0.05058175
200	0x3a95abf6	0.0011419046
201	0x3ce2c88c	0.027683519
202	0x3d1397b7	0.03603336
203	0xbc781cdb	-0.015143598
204	0xbd6ddc85	-0.058071632
205	0xbd8d204d	-0.068909265
206	0xbdc3120b	-0.09524926
207	0x3db2534d	0.087072946
208	0x3c8bed96	0.017081063
209	0x3d2dbd25	0.04241671
210	0xbcd28447	-0.02569784
211	0xbd9cd65e	-0.07658075
212	0xbe3ba4be	-0.18324563
213	0x3da00df9	0.07815165
214	0xbd9a30dd	-0.07528851
215	0x3cf248c6	0.029575717
216	0x3db8e47b	0.09027954
217	0x3dd1f5c1	0.10251952
218	0x3d758747	0.059943464
219	0x3dbbcac6	0.09169535
220	0x3c89036a	0.01672526
221	0x3e05de88	0.1307317
222	0xbe1c8036	-0.15283284
223	0x3db08327	0.08618765
224	0x3c176bf0	0.009242043
225	0xbdd6178e	-0.104537115
226	0xbd9896a2	-0.07450606
227	0x3c5837a7	0.013196862
228	0xbd558f31	-0.05213851
229	0xbda0c654	-0.07850328
230	0x3c132de1	0.008983106
231	0x3bd64b91	0.00653977
232	0x3a1b0fd2	0.0005915138
233	0x3dc1adf9	0.09457011
234	0xbb9b41ba	-0.00473806
235	0xbcf05752	-0.029338513
236	0xbe160453	-0.14650087
237	0x3d9d087f	0.07667636
238	0xbdc075ea	-0.0939749
239	0x3d4d44e4	0.050114527
240	0xbdccca3b	-0.0999951
241	0x3d14bf4f	0.03631526
242	0x3c808b73	0.015691495
243	0xbe454053	-0.19262819
244	0x3dc84621	0.09779001
245	0xbc8c6836	-0.017139535
246	0x3d371d76	0.04470583
247	0x3da22494	0.07917133
248	0xbe0d183c	-0.13778776
249	0xbe10a777	-0.14126383
250	0xbe522b11	-0.20524241
251	0x3cba3573	0.022730565
252	0xbd9794ef	-0.07401454
253	0x3de07687	0.10960107
254	0xbdaa0ae3	-0.08302858
255	0xbe1bc74b	-0.15212743

feedfwd_stack.1.bias f4 [4]
0	0x3c4aae2f	0.01237063
1	0xbdd28530	-0.1027931
2	0x3e5f694b	0.2181751
3	0xbd994365	-0.074835576
